…
        "\n",
        "infer_model.add(tf.keras.layers.Dense(10, activation= 'softmax', name='out_layer') )\n",
        "\n",
        "infer_model.summary()"
      ],
      "execution_count": 33,
      "outputs": [
        {
          "output_type": "stream",
          "text": [
            "Model: \"infer_model\"\n",
            "_________________________________________________________________\n",
            "Layer (type)                 Output Shape              Param #   \n",
            "=================================================================\n",
            "conv2d (Conv2D)              (None, 26, 26, 32)        320       \n",
            "_________________________________________________________________\n",
            "max_pooling2d (MaxPooling2D) (None, 13, 13, 32)        0         \n",
            "_________________________________________________________________\n",
            "conv2d_1 (Conv2D)            (None, 11, 11, 32)        9248      \n",
            "_________________________________________________________________\n",
            "max_pooling2d_1 (MaxPooling2 (None, 5, 5, 32)          0         \n",
            "_________________________________________________________________\n",
            "flatten (Flatten)            (None, 800)               0         \n",
            "_________________________________________________________________\n",
            "out_layer (Dense)            (None, 10)                8010      \n",
            "=================================================================\n",
            "Total params: 17,578\n",
            "Trainable params: 17,578\n",
            "Non-trainable params: 0\n",
            "_________________________________________________________________\n",
            "Model: \"infer_model\"\n",
            "_________________________________________________________________\n",
            "Layer (type)                 Output Shape              Param #   \n",
            "=================================================================\n",
            "conv2d (Conv2D)              (None, 26, 26, 32)        320       \n",
            "_________________________________________________________________\n",
            "max_pooling2d (MaxPooling2D) (None, 13, 13, 32)        0         \n",
            "_________________________________________________________________\n",
            "conv2d_1 (Conv2D)            (None, 11, 11, 32)        9248      \n",
            "_________________________________________________________________\n",
            "max_pooling2d_1 (MaxPooling2 (None, 5, 5, 32)          0         \n",
            "_________________________________________________________________\n",
            "flatten (Flatten)            (None, 800)               0         \n",
            "_________________________________________________________________\n",
            "out_layer (Dense)            (None, 10)                8010      \n",
            "=================================================================\n",
            "Total params: 17,578\n",
            "Trainable params: 17,578\n",
            "Non-trainable params: 0\n",
            "_________________________________________________________________\n"
          ],
          "name": "stdout"
        }
      ]
    },
    {
      "cell_type": "markdown",
      "metadata": {
…
